trained_model.npy (npy, 2176 bytes, 1 tensors)

array f8 [64, 4]
15.203841360768342 18.01259849290967 17.84998574645151 15.160595278717647 18.005848225062447 21.125541502576645 18.00459575533479 15.201921706255304
21.116352645361196 21.120813085706224 24.5844509405549 18.00963558377838 0.0 0.0 0.0 0.0
-2.1729758144650226 -2.2396263376665217 -2.213019570154033 -2.1317831669327125 -2.0531536975634403 -2.173446160760779 -2.123159228004216 -2.095000270287349
-2.0234346909427674 -2.025474636364043 -1.9700641830559296 -2.0455124273609906 -1.8751487094748738 -1.8905064578811346 -1.8834369648247093 -1.8705785479169088
6.456414956146473 2.905157597307994 21.061978371741944 1.013242486701688 0.0 0.0 0.0 0.0
21.116838615130828 24.575972759040692 28.427933108901286 24.575314493772595 0.0 0.0 0.0 0.0
-2.3317222364448273 -2.3255218392898858 -2.3634737806665163 -2.359776053585567 0.0 0.0 0.0 0.0
0.0 0.0 0.0 0.0 -1.7152169969158795 -1.6257089296322669 -1.7058416670040164 -1.795385289770116
1.960089462421144 3.8125480794396216 24.563842437135296 2.6331664162802038 0.0 0.0 0.0 0.0
24.578116547607813 24.574456830100278 32.69865307615855 28.421506316055073 7.875297302787307 -0.36846725444835593 9.325508946188362 28.4229748377843
-2.507259237926069 5.431023831804353 -65.13215599 -2.6328386189249047 -1.7595113676048757 -0.6115779641729622 16.314240247416762 -1.7420186952610774
0.0 0.0 0.0 0.0 -1.5389154908860734 -1.3904611129023552 -1.3954746625248597 -1.391069431957784
6.671126161387015 28.41993241940154 6.285705149471372 6.209814226427094 18.09763276088612 32.69411669119634 19.23984544992308 13.15301184354377
28.422583863541988 32.68523681961701 37.44363307242266 28.41961678431166 0.0 0.0 0.0 0.0
0.0 0.0 0.0 0.0 -1.3041607686463732 34.48724607832588 -0.9888591770009465 -52.17031
1.5044855015112788 -0.5887722066804152 57.34420964033174 1.2662836261926649 -1.1721035563385533 -1.1875915578994956 -1.0234558265890177 8.440564338244418
0.0 0.0 0.0 0.0 0.0 0.0 0.0 0.0
32.6915183045889 37.43466088833162 42.714557002880916 37.43044950713416 0.0 0.0 0.0 0.0
0.0 0.0 0.0 0.0 0.0 0.0 0.0 0.0
26.34673999963165 15.685252047551359 70.33534227705164 26.749046293713178 0.0 0.0 0.0 0.0
-1.2568612815187432 20.222294154997922 -1.8894108112298416 -1.8860716424476374 13.602879816281265 42.701535222636 13.094829877435997 4.031843340209743
37.43326995022396 48.56833677496925 42.703683777192566 37.41266537722689 48.56152397629173 55.0684298613389 -99.99314403867585 42.70348861867041
55.070837547396614 62.28683850269547 55.060604695646454 48.562514531365785 62.30034629724017 70.31124537693199 62.29679165986918 55.06056060974205
62.28473675579372 79.25336573027073 70.33298875706396 62.284937088111626 78.28946321425131 78.28412943128848 88.09999999999988 70.33029664199304
-1.7537979622489364 -1.699442838141072 -1.7074952873833813 -1.7330517305946913 0.0 0.0 0.0 0.0
0.0 0.0 0.0 0.0 0.0 0.0 0.0 0.0
0.0 0.0 0.0 0.0 0.0 0.0 0.0 0.0
0.0 0.0 0.0 0.0 78.28759848920787 88.09216800683934 98.99999999999994 88.09509954549866
-1.5695416307529806 -1.5003921447679933 -1.471264595257877 -1.4739692331448822 -1.2247897700103205 -1.2396041102133912 -1.3392604732839903 -1.3221583033730409
-0.9403248183440573 -0.945645529714107 -0.9561792499119552 -1.0148450321642946 -19.0 -0.5963869720000001 -0.58519850599 -0.6112334752243685
-0.29701 0.7055189000000004 -0.362539 -0.22483090000000003 0.42637184000000017 9.712452500000001 -0.1 0.0
-0.1 46.387341000000006 0.0 0.0 0.0 0.0 0.0 0.0
00000000: f324 14e5 5d68 2e40 a306 a3a7 3903 3240
00000010: 4c13 77aa 98d9 3140 f6f7 5b8b 3952 2e40
00000020: 0362 ef44 7f01 3240 7edb e77c 2320 3540
00000030: 04dd fa2f 2d01 3240 2770 2948 6267 2e40
00000040: 22a1 7649 c91d 3540 7e09 3c9b ed1e 3540
00000050: bbcc ab93 9e95 3840 bd34 457a 7702 3240
00000060: 0000 0000 0000 0000 0000 0000 0000 0000
00000070: 0000 0000 0000 0000 0000 0000 0000 0000
00000080: 8802 d124 4162 01c0 c04d 9c36 c1ea 01c0
00000090: a3c1 b99a 43b4 01c0 4e1d 4155 e40d 01c0
000000a0: 5592 85d8 db6c 00c0 a8ac a0bd 3763 01c0
000000b0: 69d4 c3e7 3afc 00c0 6df6 6f80 8fc2 00c0
000000c0: 4787 f986 fe2f 00c0 0b7d d00b 2c34 00c0
000000d0: 55f0 5305 6285 ffbf c29d 989e 355d 00c0
000000e0: 8c4c e5ee 9b00 febf d29e 17b3 833f febf
000000f0: 7bfe 7fcc 8e22 febf ca6f 7ec5 e3ed fdbf
00000100: ae37 3871 5ed3 1940 684f 3144 c33d 0740
00000110: e4b0 87d0 dd0f 3540 cdd2 f4c0 3d36 f03f
00000120: 0000 0000 0000 0000 0000 0000 0000 0000
00000130: 0000 0000 0000 0000 0000 0000 0000 0000
00000140: 97e5 ae22 e91d 3540 7777 63f3 7293 3840
00000150: 4c9b 3306 8d6d 3c40 08ab 87cf 4793 3840
00000160: 0000 0000 0000 0000 0000 0000 0000 0000
00000170: 0000 0000 0000 0000 0000 0000 0000 0000
00000180: 9417 e7fc 5da7 02c0 1412 af31 ab9a 02c0
00000190: 4e54 07f1 64e8 02c0 8a45 8044 d2e0 02c0
000001a0: 0000 0000 0000 0000 0000 0000 0000 0000
000001b0: 0000 0000 0000 0000 0000 0000 0000 0000
000001c0: 0000 0000 0000 0000 0000 0000 0000 0000
000001d0: 0000 0000 0000 0000 0000 0000 0000 0000
000001e0: a8c0 b460 8771 fbbf 3d5f d95d e702 fabf
000001f0: 62fb bea1 204b fbbf 9c83 f4ec e5b9 fcbf
00000200: 1c54 a5c4 865c ff3f 5ef7 1c35 1980 0e40
00000210: d197 5bfa 5790 3840 bfca d68d b910 0540
00000220: 0000 0000 0000 0000 0000 0000 0000 0000
00000230: 0000 0000 0000 0000 0000 0000 0000 0000
00000240: 8240 3172 ff93 3840 993e 529a 0f93 3840
00000250: e6ac c876 6d59 4040 9483 82d6 e76b 3c40
00000260: 75fe a6ef 4d80 1f40 962a e0ad f794 d7bf
00000270: 6fde cc1b a9a6 2240 8150 3714 486c 3c40
00000280: 0be4 6bee dd0e 04c0 d095 b54f 5eb9 1540
00000290: 50c1 653e 7548 50c0 1a6d 9fb1 0d10 05c0
000002a0: ced9 4c64 f526 fcbf de77 62f3 0b92 e3bf
000002b0: f0bd 810c 7250 3040 b2ab d2fe 4edf fbbf
000002c0: 0000 0000 0000 0000 0000 0000 0000 0000
000002d0: 0000 0000 0000 0000 0000 0000 0000 0000
000002e0: 949d 8ad9 659f f8bf f467 e426 543f f6bf
000002f0: f70d 5f3d dd53 f6bf 6c95 4b05 d241 f6bf
00000300: c896 4ab2 3baf 1a40 1adc e7b0 806b 3c40
00000310: 041d 05e4 8f24 1940 aaf5 628a d9d6 1840
00000320: 2a06 eb75 fe18 3240 e425 d4d0 d858 4040
00000330: 9883 eb82 663d 3340 a2d7 7f91 574e 2a40
00000340: ecba c174 2e6c 3c40 9322 11d7 b557 4040
00000350: 5abd f0f7 c8b8 4240 a578 6d01 6c6b 3c40
00000360: 0000 0000 0000 0000 0000 0000 0000 0000
00000370: 0000 0000 0000 0000 0000 0000 0000 0000
00000380: 0000 0000 0000 0000 0000 0000 0000 0000
00000390: 0000 0000 0000 0000 0000 0000 0000 0000
000003a0: 92ff a0ae d7dd f4bf c8c1 5914 5e3e 4140
000003b0: 7c31 3200 bca4 efbf 4417 d4b7 cc15 4ac0
000003c0: edc0 a463 5f12 f83f 6d8e 8fcf 38d7 e2bf
000003d0: ac18 be0f 0fac 4c40 1653 9f9e b242 f43f
000003e0: 76fd 9fa8 efc0 f2bf c3f1 6201 6000 f3bf
000003f0: 8f9b 8137 1360 f0bf 5a16 21a6 91e1 2040
00000400: 0000 0000 0000 0000 0000 0000 0000 0000
00000410: 0000 0000 0000 0000 0000 0000 0000 0000
00000420: 0000 0000 0000 0000 0000 0000 0000 0000
00000430: 0000 0000 0000 0000 0000 0000 0000 0000
00000440: b865 fbab 8358 4040 081e cef7 a2b7 4240
00000450: 2b40 979a 765b 4540 3bdc 2df8 18b7 4240
00000460: 0000 0000 0000 0000 0000 0000 0000 0000
00000470: 0000 0000 0000 0000 0000 0000 0000 0000
00000480: 0000 0000 0000 0000 0000 0000 0000 0000
00000490: 0000 0000 0000 0000 0000 0000 0000 0000
000004a0: 0000 0000 0000 0000 0000 0000 0000 0000
000004b0: 0000 0000 0000 0000 0000 0000 0000 0000
000004c0: 0ca2 def3 c358 3a40 1080 3b5b d95e 2f40
000004d0: ca39 743f 7695 5140 28b0 767f c1bf 3a40
000004e0: 0000 0000 0000 0000 0000 0000 0000 0000
000004f0: 0000 0000 0000 0000 0000 0000 0000 0000
00000500: d8b4 3b93 1a1c f4bf dbce 0d45 e838 3440
00000510: 550e afd4 063b febf 179c 6375 592d febf
00000520: 6bb1 cca9 ac34 2b40 5a1b fbe7 cb59 4540
00000530: e78a ac8a 8d30 2a40 5c2f 638a 9b20 1040
00000540: 9646 c563 75b7 4240 b3cd 6a42 bf48 4840
00000550: 48e2 5c4f 125a 4540 c4b0 1538 d2b4 4240
00000560: e30b 8504 e047 4840 9c42 484f c288 4b40
00000570: 2195 03ac 8fff 58c0 1926 41ea 0b5a 4540
00000580: dbb2 6a34 1189 4b40 c327 c21f b724 4f40
00000590: 8de4 08e5 c187 4b40 d3de e579 0048 4840
000005a0: 840f 5abf 7126 4f40 10bd ba71 eb93 5140
000005b0: 8d6e e444 fd25 4f40 4b22 3773 c087 4b40
000005c0: 350d 0741 7224 4f40 285c e524 37d0 5340
000005d0: a061 13b0 4f95 5140 af6d 89d1 7824 4f40
000005e0: afa6 b790 8692 5340 c4cd 352d 2f92 5340
000005f0: 5e66 6666 6606 5640 aed5 8694 2395 5140
00000600: f568 ba73 8e0f fcbf 16cc 33f9 ea30 fbbf
00000610: 022c 1694 e651 fbbf ede2 9273 94ba fbbf
00000620: 0000 0000 0000 0000 0000 0000 0000 0000
00000630: 0000 0000 0000 0000 0000 0000 0000 0000
00000640: 0000 0000 0000 0000 0000 0000 0000 0000
00000650: 0000 0000 0000 0000 0000 0000 0000 0000
00000660: 0000 0000 0000 0000 0000 0000 0000 0000
00000670: 0000 0000 0000 0000 0000 0000 0000 0000
00000680: 0000 0000 0000 0000 0000 0000 0000 0000
00000690: 0000 0000 0000 0000 0000 0000 0000 0000
000006a0: 0000 0000 0000 0000 0000 0000 0000 0000
000006b0: 0000 0000 0000 0000 0000 0000 0000 0000
000006c0: 0000 0000 0000 0000 0000 0000 0000 0000
000006d0: 0000 0000 0000 0000 0000 0000 0000 0000
000006e0: b761 7e03 6892 5340 33c7 a314 e605 5640
000006f0: fcff ffff ffbf 5840 ff71 671c 1606 5640
00000700: 84b6 5caf d71c f9bf e242 8f31 9b01 f8bf
00000710: fa52 86be 4c8a f7bf f3ad 3ac3 6095 f7bf
00000720: 0bb7 6a28 bd98 f3bf bca8 951e 6bd5 f3bf
00000730: 9548 d963 9c6d f5bf f2f3 1177 8f27 f5bf
00000740: acf4 cc12 2417 eebf c761 f769 ba42 eebf
00000750: 848a ef39 0599 eebf 9c75 fa24 ce3c f0bf
00000760: 0000 0000 0000 33c0 d603 9021 9a15 e3bf
00000770: bea4 9c37 f2b9 e2bf 0fe4 4981 398f e3bf
00000780: fc6f 253b 3602 d3bf 78b7 465f 9c93 e63f
00000790: 2192 21c7 d633 d7bf ebab 5049 42c7 ccbf
000007a0: e60f 2f1d ad49 db3f 2ae8 f692 c66c 2340
000007b0: 9a99 9999 9999 b9bf 0000 0000 0000 0000
000007c0: 9a99 9999 9999 b9bf 32b3 cf63 9431 4740
000007d0: 0000 0000 0000 0000 0000 0000 0000 0000
000007e0: 0000 0000 0000 0000 0000 0000 0000 0000
000007f0: 0000 0000 0000 0000 0000 0000 0000 0000
